…
","test = Paper_model()\n","print(test.forward(x).shape)\n","print(test)"],"metadata":{"colab":{"base_uri":"https://localhost:8080/"},"id":"aV_uiFEbZXGz","executionInfo":{"status":"ok","timestamp":1715306638138,"user_tz":-480,"elapsed":16,"user":{"displayName":"Theovin Lautan","userId":"17106006947934370905"}},"outputId":"184eca6d-ddcc-4740-feb4-bde6028b0684"},"execution_count":4,"outputs":[{"output_type":"stream","name":"stdout","text":["torch.Size([1, 50, 52, 52])\n","<class 'torch.Tensor'>\n","torch.Size([10, 8])\n","Paper_model(\n","  (conv_1_offset): DeformableConv2d(\n","    (offset_conv): Conv2d(1, 18, kernel_size=(3, 3), stride=(1, 1), padding=(1, 1))\n","    (modulator_conv): Conv2d(1, 9, kernel_size=(3, 3), stride=(1, 1), padding=(1, 1))\n","    (regular_conv): Conv2d(1, 32, kernel_size=(3, 3), stride=(1, 1), padding=(1, 1), bias=False)\n","  )\n","  (conv_1): Conv2d(32, 32, kernel_size=(3, 3), stride=(2, 2), padding=(1, 1))\n","  (batch_normalization_1): BatchNorm2d(32, eps=1e-05, momentum=0.1, affine=True, track_running_stats=True)\n","  (conv_2_offset): DeformableConv2d(\n","    (offset_conv): Conv2d(32, 18, kernel_size=(3, 3), stride=(1, 1), padding=(1, 1))\n","    (modulator_conv): Conv2d(32, 9, kernel_size=(3, 3), stride=(1, 1), padding=(1, 1))\n","    (regular_conv): Conv2d(32, 64, kernel_size=(3, 3), stride=(1, 1), padding=(1, 1), bias=False)\n","  )\n","  (conv_2): Conv2d(64, 64, kernel_size=(3, 3), stride=(2, 2), padding=(1, 1))\n","  (batch_normalization_2): BatchNorm2d(64, eps=1e-05, momentum=0.1, affine=True, track_running_stats=True)\n","  (conv_3_offset): DeformableConv2d(\n","    (offset_conv): Conv2d(64, 18, kernel_size=(3, 3), stride=(1, 1), padding=(1, 1))\n","    (modulator_conv): Conv2d(64, 9, kernel_size=(3, 3), stride=(1, 1), padding=(1, 1))\n","    (regular_conv): Conv2d(64, 128, kernel_size=(3, 3), stride=(1, 1), padding=(1, 1), bias=False)\n","  )\n","  (conv_3): Conv2d(128, 128, kernel_size=(3, 3), stride=(2, 2), padding=(1, 1))\n","  (batch_normalization_3): BatchNorm2d(128, eps=1e-05, momentum=0.1, affine=True, track_running_stats=True)\n","  (pooling): AdaptiveAvgPool2d(output_size=(1, 1))\n","  (fc): Linear(in_features=128, out_features=8, bias=True)\n",")\n"]}]},{"cell_type":"code","source":["import numpy as np\n","import torch\n","from torch.utils.data import Dataset, DataLoader, SubsetRandomSampler\n","\n","class WaferDataset(Dataset):\n","    def __init__(self, img_array, label_array):\n","        self.img_array = img_array\n","        self.label_array = label_array\n","\n","    def __len__(self)
…
